…
2025-05-01 12:03:37,437-lr_dc: 0
2025-05-01 12:03:37,437-patience: 10
2025-05-01 12:03:37,437-watch_metric: NDCG@10
2025-05-01 12:03:37,437-seed: 42
2025-05-01 12:03:37,437-no_cuda: False
2025-05-01 12:03:37,437-gpu_id: 0
2025-05-01 12:03:37,437-num_workers: 8
2025-05-01 12:03:37,437-log: True
2025-05-01 12:03:37,561-Loading dataset ... 
2025-05-01 12:03:37,613-Dataset is loaded: consume 0.051 s
2025-05-01 12:03:37,613-Loading Model: fcrllm_gru4rec
2025-05-01 12:03:41,894-# of model parameters: 18468224
2025-05-01 12:03:42,830-FlipClassEnsemble(
  (st): FlipModelST(
    (enc): DualViewGRU4Rec(
      (item_emb): Embedding(4724, 64, padding_idx=0)
      (backbone): GRU4RecBackbone(
        (gru): GRU(64, 64, bias=False, batch_first=True)
      )
      (loss_func): BCEWithLogitsLoss()
      (llm_item_emb): Embedding(4724, 1536)
      (adapter): Sequential(
        (0): Linear(in_features=1536, out_features=768, bias=True)
        (1): Linear(in_features=768, out_features=64, bias=True)
      )
      (id_item_emb): Embedding(4724, 64)
      (pos_emb): Embedding(300, 64)
      (emb_dropout): Dropout(p=0.5, inplace=False)
    )
    (pos_emb): Embedding(300, 64)
    (do): Dropout(p=0.5, inplace=False)
    (block): FlipBlockST(
      (student_layers): ModuleList(
        (0): _HopBlock(
          (ln): LayerNorm((64,), eps=1e-05, elementwise_affine=True)
          (attn): MultiheadAttention(
            (out_proj): NonDynamicallyQuantizableLinear(in_features=64, out_features=64, bias=True)
          )
          (ffn): PointWiseFeedForward(
            (linear1): Linear(in_features=64, out_features=256, bias=True)
            (dropout): Dropout(p=0.5, inplace=False)
            (linear2): Linear(in_features=256, out_features=64, bias=True)
            (dropout2): Dropout(p=0.5, inplace=False)
            (LayerNorm): LayerNorm((64,), eps=1e-12, elementwise_affine=True)
          )
        )
      )
      (teacher_layers): ModuleList(
        (0): _HopBlock(
          (ln): LayerNorm((64,), eps=1e-05, elementwise_affine=True)
          (attn): MultiheadAttention(
            (out_proj): NonDynamicallyQuantizableLinear(in_features=64, out_features=64, bias=True)
          )
          (ffn): PointWiseFeedForward(
            (linear1): Linear(in_features=64, out_features=256, bias=True)
            (dropout): Dropout(p=0.5, inplace=False)
            (linear2): Linear(in_features=256, out_features=64, bias=True)
            (dropout2): Dropout(p=0.5, inplace=False)
            (LayerNorm): LayerNorm((64,), eps=1e-12, elementwise_affine=True)
          )
        )
      )
    )
    (mse): MSELoss()
  )
  (ct): FlipModelCT(
    (enc): DualViewGRU4Rec(
      (item_emb): Embedding(4724, 64, padding_idx=0)
      (backbone): GRU4RecBackbone(
        (gru): GRU(64, 64, bias=False, batch_first=True)
      )
      (loss_func): BCEWithLogitsLoss()
      (llm_item_emb): Embedding(4724, 1536)
      (adapter): Sequential(
        (0): Linear(in_features=1536, out_features=768, bias=True)
        (1): Linear(in_features=768, out_features=64, bias=True)
      )
      (id_item_emb): Embedding(4724, 64)
      (pos_emb): Embedding(300, 64)
      (emb_dropout): Dropout(p=0.5, inplace=False)
    )
    (pos_emb): Embedding(300, 64)
    (do): Dropout(p=0.5, inplace=False)
    (block): FlipBlockCT(
      (teacher_layers): ModuleList(
        (0): _HopBlock(
          (ln): LayerNorm((64,), eps=1e-05, elementwise_affine=True)
          (attn): MultiheadAttention(
            (out_proj): NonDynamicallyQuantizableLinear(in_features=64, out_features=64, bias=True)
          )
          (ffn): PointWiseFeedForward(
            (linear1): Linear(in_features=64, out_features=256, bias=True)
            (dropout): Dropout(p=0.5, inplace=False)
            (linear2): Linear(in_features=256, out_features=64, bias=True)
            (dropout2): Dropout(p=0.5, inplace=False)
            (LayerNorm): LayerNorm((64,), eps=1e-12, elementwise_affine=True)
          )
        )
      )
      (student_layers): ModuleList(
        (0): _HopBlock(
          (ln): LayerNorm((64,), eps=1e-05, elementwise_affine=True)
          (attn): MultiheadAttention(
            (out_proj): NonDynamicallyQuantizableLinear(in_features=64, out_features=64, bias=True)
          )
          (ffn): PointWiseFeedForward(
            (linear1): Linear(in_features=64, out_features=256, bias=True)
            (dropout): Dropout(p=0.5, inplace=False)
            (linear2): Linear(in_features=256, out_features=64, bias=True)
            (dropout2): Dropout(p=0.5, inplace=False)
            (LayerNorm): LayerNorm((64,), eps=1e-12, elementwise_affine=True)
          )
        )
      )
    )
    (mse): MSELoss()
  )
)
2025-05-01 12:03:42,832-Model Name   : fcrllm_gru4rec
2025-05-01 12:03:42,832-Hidden Size  : 64
2025-05-01 12:03:42,832-Dropout Rate : 0.5
2025-05-01 12:03:42,832-Freeze LLM   : True
2025-05-01 12:03:42,832-Hopfield     : α=0.3, β=0.7, γ=0.5
2025-05-01 12:03:42,832-
----------------------------------------------------------------
…
